…
d_hid = 256
d_proj = 768
shared_pair_attn = 0
attn = 0
d_hid_attn = 512
dropout = 0.1
cls_loss_fn = 
cls_span_pooling = x,y
edgeprobe_cnn_context = 0
use_classifier = cola
	Task 'cola' params: {
  "cls_type": "log_reg",
  "d_hid": 256,
  "d_proj": 768,
  "shared_pair_attn": 0,
  "attn": 0,
  "d_hid_attn": 512,
  "dropout": 0.1,
  "cls_loss_fn": "",
  "cls_span_pooling": "x,y",
  "edgeprobe_cnn_context": 0,
  "use_classifier": "cola"
}
Using pool type final
MultiTaskModel(
  (sent_encoder): SentenceEncoder(
    (_text_field_embedder): OpenAIEmbedderModule(
      (model): TransformerModel(
        (embed): Embedding(40993, 768)
        (drop): Dropout(p=0.1)
        (h): ModuleList(
          (0): Block(
            (attn): Attention(
              (c_attn): Conv1D()
              (c_proj): Conv1D()
              (attn_dropout): Dropout(p=0.1)
              (resid_dropout): Dropout(p=0.1)
            )
            (ln_1): LayerNorm()
            (mlp): MLP(
              (c_fc): Conv1D()
              (c_proj): Conv1D()
              (dropout): Dropout(p=0.1)
            )
            (ln_2): LayerNorm()
          )
          (1): Block(
            (attn): Attention(
              (c_attn): Conv1D()
              (c_proj): Conv1D()
              (attn_dropout): Dropout(p=0.1)
              (resid_dropout): Dropout(p=0.1)
            )
            (ln_1): LayerNorm()
            (mlp): MLP(
              (c_fc): Conv1D()
              (c_proj): Conv1D()
              (dropout): Dropout(p=0.1)
            )
            (ln_2): LayerNorm()
          )
          (2): Block(
            (attn): Attention(
              (c_attn): Conv1D()
              (c_proj): Conv1D()
              (attn_dropout): Dropout(p=0.1)
              (resid_dropout): Dropout(p=0.1)
            )
            (ln_1): LayerNorm()
            (mlp): MLP(
              (c_fc): Conv1D()
              (c_proj): Conv1D()
              (dropout): Dropout(p=0.1)
            )
            (ln_2): LayerNorm()
          )
          (3): Block(
            (attn): Attention(
              (c_attn): Conv1D()
              (c_proj): Conv1D()
              (attn_dropout): Dropout(p=0.1)
              (resid_dropout): Dropout(p=0.1)
            )
            (ln_1): LayerNorm()
            (mlp): MLP(
              (c_fc): Conv1D()
              (c_proj): Conv1D()
              (dropout): Dropout(p=0.1)
            )
            (ln_2): LayerNorm()
          )
          (4): Block(
            (attn): Attention(
              (c_attn): Conv1D()
              (c_proj): Conv1D()
              (attn_dropout): Dropout(p=0.1)
              (resid_dropout): Dropout(p=0.1)
            )
            (ln_1): LayerNorm()
            (mlp): MLP(
              (c_fc): Conv1D()
              (c_proj): Conv1D()
              (dropout): Dropout(p=0.1)
            )
            (ln_2): LayerNorm()
          )
          (5): Block(
            (attn): Attention(
              (c_attn): Conv1D()
              (c_proj): Conv1D()
              (attn_dropout): Dropout(p=0.1)
              (resid_dropout): Dropout(p=0.1)
            )
            (ln_1): LayerNorm()
            (mlp): MLP(
              (c_fc): Conv1D()
              (c_proj): Conv1D()
              (dropout): Dropout(p=0.1)
            )
            (ln_2): LayerNorm()
          )
          (6): Block(
            (attn): Attention(
              (c_attn): Conv1D()
              (c_proj): Conv1D()
              (attn_dropout): Dropout(p=0.1)
              (resid_dropout): Dropout(p=0.1)
            )
            (ln_1): LayerNorm()
            (mlp): MLP(
              (c_fc): Conv1D()
              (c_proj): Conv1D()
              (dropout): Dropout(p=0.1)
            )
            (ln_2): LayerNorm()
          )
          (7): Block(
            (attn): Attention(
              (c_attn): Conv1D()
              (c_proj): Conv1D()
              (attn_dropout): Dropout(p=0.1)
              (resid_dropout): Dropout(p=0.1)
            )
            (ln_1): LayerNorm()
            (mlp): MLP(
              (c_fc): Conv1D()
              (c_proj): Conv1D()
              (dropout): Dropout(p=0.1)
            )
            (ln_2): LayerNorm()
          )
          (8): Block(
            (attn): Attention(
              (c_attn): Conv1D()
              (c_proj): Conv1D()
              (attn_dropout): Dropout(p=0.1)
              (resid_dropout): Dropout(p=0.1)
            )
            (ln_1): LayerNorm()
            (mlp): MLP(
              (c_fc): Conv1D()
              (c_proj): Conv1D()
              (dropout): Dropout(p=0.1)
            )
            (ln_2): LayerNorm()
          )
          (9): Block(
            (attn): Attention(
              (c_attn): Conv1D()
              (c_proj): Conv1D()
              (attn_dropout): Dropout(p=0.1)
              (resid_dropout): Dropout(p=0.1)
            )
            (ln_1): LayerNorm()
            (mlp): MLP(
              (c_fc): Conv1D()
              (c_proj): Conv1D()
              (dropout): Dropout(p=0.1)
            )
            (ln_2): LayerNorm()
          )
          (10): Block(
            (attn): Attention(
              (c_attn): Conv1D()
              (c_proj): Conv1D()
              (attn_dropout): Dropout(p=0.1)
              (resid_dropout): Dropout(p=0.1)
            )
            (ln_1): LayerNorm()
            (mlp): MLP(
              (c_fc): Conv1D()
              (c_proj): Conv1D()
              (dropout): Dropout(p=0.1)
            )
            (ln_2): LayerNorm()
          )
          (11): Block(
            (attn): Attention(
              (c_attn): Conv1D()
              (c_proj): Conv1D()
              (attn_dropout): Dropout(p=0.1)
              (resid_dropout): Dropout(p=0.1)
            )
            (ln_1): LayerNorm()
            (mlp): MLP(
              (c_fc): Conv1D()
              (c_proj): Conv1D()
              (dropout): Dropout(p=0.1)
            )
            (ln_2): LayerNorm()
          )
        )
      )
    )
    (_highway_layer): TimeDistributed(
      (_module): Highway(
        (_layers): ModuleList()
      )
    )
    (_phrase_layer): NullPhraseLayer()
    (_dropout): Dropout(p=0.1)
  )
  (cola_mdl): SingleClassifier(
    (pooler): Pooler()
    (classifier): Classifier(
      (classifier): Linear(in_features=768, out_features=2, bias=True)
    )
  )
)
>> Trainable param sent_encoder._text_field_embedder.model.embed.weight: torch.Size([40993, 768]) = 31482624
>> Trainable param sent_encoder._text_field_embedder.model.h.0.attn.c_attn.w: torch.Size([768, 2304]) = 1769472
>> Trainable param sent_encoder._text_field_embedder.model.h.0.attn.c_attn.b: torch.Size([2304]) = 2304
>> Trainable param sent_encoder._text_field_embedder.model.h.0.attn.c_proj.w: torch.Size([768, 768]) = 589824
…
